assignment/problem_2/statedicts/best_model_cnn.pt (torch, 878502 bytes, 6 tensors)

weight f4 [32, 3, 3, 3]
00000000: 7fd3 b9bc 5aa0 4f3e f985 623c 374d 61bd
00000010: 3d1b 813d 3ce1 083e 2ce1 4fbe e481 223d
00000020: 3f39 fe3d 3563 94be 902d bfbd 9a65 253e
00000030: 91e9 af3c 3c6d c3bd 5c50 643e ae54 343c
00000040: 9989 483d 84a7 6b3e 88e1 7ebe 0853 59bc
00000050: a34a 32be 40b0 83be 0299 c53d 01e6 413e
00000060: ea5c ef3d f017 613d aaab 17be 272f 21bd
00000070: 0d37 22bb ff5e f33c bd49 09be 4b85 db3b
00000080: 8cdb 05be bcc9 253e eed1 2bbe 6953 3f3e
00000090: 824d e13d 343a db3d 5e43 203e 6110 3b3e
000000a0: d387 62bd b983 d53d b05f edbd 665c 9ebd
000000b0: def9 55bd d32c 1d3e 7b99 383d 75bc 303e
000000c0: 5145 51be df9d 42be 54b4 613d 381a 773d
000000d0: 22e3 7b3c a92e 5abe 740c 3f3e 323c 9e3e
000000e0: 1129 193e fd01 9f3e 039d 273e 1199 a33e
000000f0: ab47 d6bb 15df f23d 2eaa a13e 4373 3abe
00000100: b0f8 9ebe b052 c1bd 9f79 77be 33b4 7bbc
00000110: 5eb7 b13d c356 b7bc 0226 63be e439 cf3d
00000120: bc7c c3bd c36c 3dbe e8d0 28be ea20 58be
00000130: 0ade a0be 528a 8dbe d3cb 693c e0af 9fbd
00000140: 5583 963c 3fb4 853e e808 d53c 26d9 6f3e
00000150: 3767 60bc 9e2a 03bb 9cc5 863e 4eca 7f3d
00000160: 8942 413d 7b33 323e 85a7 fdbc 4084 3a3e
00000170: 086b de3c 5996 3dbe c944 0ebe 619c 63be
00000180: 2b54 aa3d 5ef8 67be d62d 75bd 18b8 ed3c
00000190: 18ca 9d3d d976 e33d c683 76be aa6f 36be
000001a0: 67f6 d6bd ea68 78bd e4a4 8abe 917e d93b
000001b0: 4789 073e 9b48 1f3e 4f2a 973d ce61 a63d
000001c0: 834f 903c 34f0 91bd a985 d33d 61f9 8fbd
000001d0: 0c3f 4abd 1582 473e a6e7 95bd 326f 1a3a
000001e0: c2b2 273e 31bb e4bd 8bf2 193e 86ed 0abd
000001f0: a192 f63c c779 0cbe d1f4 303d 2677 153e
00000200: 8107 f03c 02f6 d43c b9eb f03d 9206 59be
00000210: 732f 11be be45 b63d b5f5 e33d ff3b e33d
00000220: fd4a e9bc 62f1 fcbd a085 f2bd 6805 e7bd
00000230: 4bf9 043d 8629 35be c685 99bc 251c 2b3c
00000240: 65f0 37be 5d65 febd 751b 23be 177d cf3d
00000250: fdc8 d1bd 1207 14be 99e8 3e3e bb24 3d3d
00000260: 7a2e 96bd 26f3 fabd 9f6e 12be 445c 54bc
00000270: 896b b3bd c9eb 243e 7aa7 68bd 4091 1d3d
00000280: 75c6 273d 1ccc 03be 34bc 413e 122d 96bd
00000290: dcea 7f3e fcc6 bdbc 007c 6d3e 0489 683c
000002a0: 9916 653e e2dc a8bd 1e7e 193e 99ec 353e
000002b0: b6da 38be 4ce6 323e 8d63 6dbd 0072 46be
000002c0: 6eab 123e 8975 64be b51f 37bd ffaa 6e3e
000002d0: de10 5abc c304 3abe 0dc3 4bbe 0e9f 4bbe
000002e0: b15c 59be ef22 1d3d fc5f b1bd ba3a d0bd
000002f0: cd06 06be 5185 c23d e7ce a73d 6828 a3bc
00000300: 6d90 1bbe 53d8 0dbd 2458 cdbd 784b aebd
00000310: 3471 c9bd 811e 433e 81fd 2dbe 8c90 a7bd
00000320: 7211 c53c 5132 75bd 1004 43be 48fe 6d3d
00000330: 753a 96bc 34c1 d9bd d0af cfbd 3ff4 65bd
00000340: d8e7 a33d 968f 3abe b935 37be 641c 70bd
00000350: 9d09 eebd f560 dd3d 9f69 91bd 83e0 fdbb
00000360: 6702 10bb 2bf0 b33d c44f 10be 5367 d23d
00000370: f0a9 b63d 8513 2b3d 721a 00be 9682 0d3d
00000380: 5914 193e 0fe6 d4bc 6a12 073e 5e06 f7bd
00000390: 51d5 f53d afdd a13d 2727 143d f338 42bd
000003a0: 515e 373b 3e75 2b3e 939f b03c 9e36 013e
000003b0: d76c 883c 7cb0 97bd cd30 60be c52f 75be
000003c0: 0aab 02be ea13 adbd 7191 813d 3785 5cbe
000003d0: f526 aa3b 5eeb 2dbe 3a58 acbd 0863 073d
000003e0: f559 cb3d cce2 13be 4618 0cbe 20f3 d53d
000003f0: 1b2c 1d3d 3a43 af3d 92b2 5b3e fbc2 40be
-0.022683857 0.20276013 0.013825887 -0.05500528 0.063040234 0.1336717 -0.2030074 0.039674655
0.124132626 -0.2898194 -0.09334862 0.16152039 0.021473678 -0.09542319 0.2229628 0.011006517
0.04895935 0.23013121 -0.24890721 -0.013264425 -0.17411284 -0.25720406 0.096483245 0.18935396
0.11687644 0.05495447 -0.14811578 -0.03935161 -0.002475205 0.029708384 -0.13407035 0.0066992394
-0.13072032 0.16190237 -0.167793 0.18684162 0.110011116 0.10704461 0.15650699 0.18267967
-0.055305313 0.10425515 -0.115905166 -0.07732467 -0.052240245 0.1534913 0.045068245 0.1725939
-0.20436598 -0.19005536 0.055103615 0.06032774 0.015373977 -0.21306862 0.18657094 0.309053
0.14957072 0.31056204 0.16368489 0.31952718 -0.006539305 0.11858956 0.3157515 -0.18208031
-0.31049109 -0.094395995 -0.24167489 -0.015362787 0.08677553 -0.022380238 -0.22182468 0.10118464
-0.095452756 -0.1849852 -0.16485941 -0.21106306 -0.31419402 -0.27644593 0.014269787 -0.07797217
0.01837317 0.2611408 0.026005223 0.2342268 -0.013696483 -0.0020014415 0.2632264 0.062448792
0.047182593 0.1740245 -0.030963669 0.18214512 0.027150646 -0.18514384 -0.13893427 -0.22227623
0.08316835 -0.22653338 -0.059858166 0.029018447 0.07704562 0.11106653 -0.24073705 -0.17816034
-0.10496216 -0.06064693 -0.27078927 0.0066374023 0.13235961 0.1555504 0.073811166 0.081241235
0.01761604 -0.07125893 0.10328228 -0.07029987 -0.049376532 0.19483216 -0.07319574 0.0005891203
0.16376784 -0.111685164 0.15033929 -0.033917926 0.030099215 -0.1371833 0.043202225 0.14596233
0.029300453 0.025996212 0.117637105 -0.21193913 -0.14178257 0.08900021 0.11130849 0.11095428
-0.02847814 -0.123507276 -0.11841893 -0.11280328 0.032464307 -0.17691621 -0.018740546 0.010443722
-0.17962797 -0.12421677 -0.15928443 0.10131281 -0.102434136 -0.14455822 0.18643416 0.046177607
-0.073330835 -0.12253408 -0.14300011 -0.012961451 -0.08760745 0.1610557 -0.056800343 0.0384686
0.040960748 -0.1287083 0.1891945 -0.07332815 0.24991935 -0.023166172 0.23191833 0.014192823
0.22371902 -0.08245255 0.14989516 0.17766036 -0.18052182 0.17470664 -0.057956267 -0.19379425
0.14323208 -0.22310461 -0.044707973 0.23307417 -0.0133096855 -0.18165879 -0.19898625 -0.19884893
-0.21226765 0.038363393 -0.08660886 -0.10167451 -0.13088532 0.09498084 0.0819376 -0.019916728
-0.15191813 -0.03463013 -0.10026577 -0.08510488 -0.09836045 0.19054605 -0.16991235 -0.08181867
0.02405617 -0.05986244 -0.19044518 0.05810383 -0.018338421 -0.10632554 -0.101409554 -0.056141134
0.08003205 -0.18218836 -0.17891587 -0.058620825 -0.11622927 0.10809509 -0.07100224 -0.007747711
-0.0021974088 0.08786043 -0.14092928 0.10273614 0.08919132 0.041766662 -0.12510088 0.034548365
0.14949168 -0.025988607 0.13190618 -0.12061761 0.120035775 0.07903611 0.03617015 -0.047417592
0.00279798 0.16743943 0.021560466 0.12618491 0.016653461 -0.074067086 -0.21893616 -0.23944004
-0.12760559 -0.08451064 0.06326569 -0.21535192 0.0051926323 -0.16984317 -0.084152654 0.033053428
0.09929267 -0.14441985 -0.13681135 0.10446763 0.03837214 0.08557744 0.21454838 -0.18824379

bias f4 [32]
00000000: c088 05be c785 2dbe aae5 a63e 11a7 193e
00000010: 21bf b1bd a85b f3bd 278e 353e 4e1a 063c
00000020: 0242 0b3d cf74 a5bd a0d3 7ebd fc5d 843d
00000030: 427a f4bd 38ef c6bd f270 353e b484 173e
00000040: 0c43 15be 8219 c13d 8507 193e f303 223e
00000050: c6cb 8bbd d2a9 053e e546 84bd fa47 353d
00000060: 358e 53bd 9d68 573e f212 83bd 9edd 563d
00000070: f3ea 2e3d 87cd 8abd 1758 2cbe d4c5 acbd
-0.13040447 -0.16945563 0.32597095 0.15005137 -0.08679033 -0.118827164 0.17730008 0.008184982
0.033998497 -0.0807892 -0.06221354 0.064632386 -0.11937381 -0.09713596 0.17718866 0.14796716
-0.14576358 0.09428693 0.14944275 0.15821819 -0.06825976 0.13053063 -0.064588346 0.044258095
-0.05164929 0.21036 -0.06400098 0.052457444 0.042704534 -0.067774825 -0.16830479 -0.0843617

weight f4 [30, 7200]
00000000: b4dd 19bc 3315 bfbb caf2 393c 33fd aabb
00000010: 5acc 393c d00d 42bb 7d71 fbba f602 cebb
00000020: 3e77 ed3b 5d29 c23a 19c8 cc3a 58cc ab39
00000030: f7da 43ba 26d7 ce3b 7df9 c33b e852 5fba
00000040: 3bfe 73bb d71f a3ba c10e cf3b 9019 0cbb
00000050: a851 203c 6310 aebb 91e2 20bb 6a43 ea3b
00000060: f17a 963b 6a7e f8bb ae5e fb3a 1478 3f3b
00000070: 47d4 053c 930e a1bb a35e da3a 70b9 10bc
00000080: 4bad 9e3b 6aec ca3b a2e5 0dbc dd7e 403c
00000090: f8be a53b 7424 8c3b 308a 0bbc 7b02 a43b
000000a0: a6f2 50ba 5d4a 0b3c 4a6c efbb 3c24 333c
000000b0: 7272 1fbb 3b7b 3fbc 19ca baba d62a 303c
000000c0: 11da 40bc ec16 d5bb 66cb 073c ba06 eb3b
000000d0: 053b 1c3b 9353 0abc 8a22 073b 672b dbbb
000000e0: 8180 84bb 0874 023c a94c 33bb 20a3 bdbb
000000f0: 0240 333c 581f 24bb f9a8 d53a e595 583b
00000100: be39 2a3b b802 b03b 05ee 843b a538 cdbb
00000110: 06d9 9fbb 0ec0 c4bb 5664 b63a 9e09 fa3b
00000120: 986b 84ba 84ab efba 20b8 7c3b 8043 f5b9
00000130: ee38 df3b 1353 243c 4221 143c a84c 9ebb
00000140: 1d41 f4bb c30e 1ebc ccbe 563b 9097 0dbc
00000150: db13 173c 478d 2dbc f928 8839 c2fb 1b3b
00000160: 0d16 9cbb 2622 56bb 635b 283c d87f 0abb
00000170: 0953 e83b 7ad4 c4bb 4937 f7bb 1637 f3bb
00000180: 19a8 433b cbad d23b 9eaf f23b edc9 033c
00000190: 8106 0b3c 25c4 a4b9 6820 973b 38ce 3cbc
000001a0: 61db cb3b 8992 c23b a607 fabb affc dbbb
000001b0: 87e8 8b3b a1f2 f5ba 007d 1a3c 6a50 a8bb
000001c0: 93c2 303c 794d 30bb 818c a8ba 893f 993b
000001d0: 26bb 61bb 3372 283c 7541 cebb 7856 2539
000001e0: d110 5ebb 5998 163c 3dde 11bb 98e9 173c
000001f0: 385f a73b 4eb4 5dbb bb5f acbb 7d5e fbbb
00000200: a72b 22bc f762 cabb 809f 9c3b 4981 22bc
00000210: cb36 923b 1bf4 993b d12a fa3b 53af b03b
00000220: 3ad4 74bb 90ce e03b 6fd7 c1ba 7b93 243c
00000230: eb0f 8e3a eb3e 38bc b151 62ba 4329 443b
00000240: 5ebd 023c 552f a23a 1c9c 89ba c336 253c
00000250: 4baf 6dbb 5570 433a da93 a43b 108d dcbb
00000260: 6f7b c3bb a0da a03b 3392 3d3c f505 9e3b
00000270: db81 c03b 0318 3d3b 60e0 acbb b541 023c
00000280: 0bf3 65bb 1f83 0abc 2c1a 9d3b 6a1d e2ba
00000290: b94c ceba 0d96 e7ba 9ca6 2b3b c129 0e3c
000002a0: 0e3f 123c 240f b33a 5c1d 3e3b 5023 25bc
000002b0: 4c26 0b3c 17af b63b d32a 0dbc 2ff4 073c
000002c0: 6db5 1f3c 4799 d53b d873 9a3b f2e2 bf3b
000002d0: 3de7 b5bb 6af1 c0bb a8d1 a3b9 dde0 b4bb
000002e0: 6dcf 6c3b 03e0 83ba 7260 33bc fe6e 6e3b
000002f0: 8755 c4b8 56f8 2d3c 3f27 3a3c d369 c73b
00000300: 4aa7 cf3b a134 c9ba b030 4abb 66de 453a
00000310: 8035 97bb a6d8 44bb 2c81 143b a222 ad3a
00000320: 3d5c 593b 2a79 2cbc 8ef0 b3bb b40f 34bb
00000330: f8a4 3a3c 1ec0 e23b 424f 1f3c 1570 21bc
00000340: 5742 b8bb 6449 1bbc 8261 b33b 74c1 453b
00000350: b6af 9eba 7462 89bb ea0e 02bc 718c 39bc
00000360: 6cb9 0bb8 a06d 063c 4731 133c d287 adbb
00000370: 92e7 10bc bf23 44bb b377 94bb 9335 2cbc
00000380: b501 1bbc d298 25bc f05e 683b 34a0 27bc
00000390: 3ae4 17bc 19b1 57bb ec12 9bbb 1a5e 6bbb
000003a0: e52d 043c 9c71 4e3b 48f2 0c3c 3c85 ea3b
000003b0: eb24 febb c307 ccba 6ae7 9639 636f 633b
000003c0: d8d6 bbb9 a943 863b 7c92 213c 6554 1c3c
000003d0: c958 333c ad41 2abc 3221 72bb e914 953b
000003e0: 3542 74ba e213 13bc 8bbd 09bc 8868 a03b
000003f0: d235 05bc 5ec1 0abc 4d5f 983b b519 d73b
-0.009391237 -0.0058313846 0.011349389 -0.005218172 0.011340225 -0.0029610284 -0.0019183602 -0.006286974
0.007246881 0.0014813353 0.0015623599 0.0003276791 -0.0007471288 0.006312269 0.005980669 -0.0008519129
-0.003723039 -0.0012445402 0.0063188975 -0.002137754 0.009785093 -0.005312012 -0.0024549107 0.0071491497
0.0045922925 -0.007583429 0.0019177997 0.002921586 0.008168287 -0.0049150675 0.0016660284 -0.008833274
0.0048424355 0.0061927335 -0.008660706 0.011748997 0.0050581656 0.0042768065 -0.008516833 0.0050051785
-0.0007970728 0.008501616 -0.0073066102 0.010933932 -0.002432969 -0.011687095 -0.0014250904 0.0107524
-0.011770741 -0.0065029766 0.00828824 0.0071724327 0.002383889 -0.008442777 0.0020619952 -0.0066885236
-0.004043639 0.007962234 -0.0027358925 -0.0057872683 0.010940554 -0.0025043096 0.0016300968 0.0033048328
0.0025974358 0.005371418 0.0040566945 -0.006262856 -0.004878166 -0.00600434 0.00139154 0.007630541
-0.0010102866 -0.0018285369 0.0038561895 -0.00046780333 0.0068122065 0.010029572 0.009041132 -0.0048309155
-0.007454051 -0.009647074 0.0032767532 -0.008642092 0.0092210425 -0.010592765 0.00025970468 0.0023801182
-0.004763371 -0.0032674163 0.010275695 -0.002113333 0.0070899767 -0.0060067745 -0.0075444323 -0.0074223382
0.0029854833 0.006429409 0.007406189 0.008043748 0.008485437 -0.00031426657 0.0046120174 -0.011523776
0.0062212204 0.0059378785 -0.0076303063 -0.006713472 0.004269663 -0.0018764326 0.009429216 -0.005136539
0.010788578 -0.0026901646 -0.0012859256 0.0046767634 -0.0034443825 0.010281133 -0.006294424 0.00015767838
-0.0033884535 0.009191596 -0.0022257708 0.009272002 0.0051077865 -0.0033829394 -0.0052604354 -0.007671176
-0.009898103 -0.0061763483 0.004779756 -0.009918519 0.0044620982 0.004698289 0.0076344986 0.005391994
-0.0037357942 0.0068605617 -0.0014788936 0.010044928 0.0010838484 -0.01124547 -0.0008633389 0.002993182
0.007979719 0.0012373725 -0.0010498795 0.010083857 -0.0036267813 0.00074553984 0.005022508 -0.006730683
-0.005965642 0.0049088746 0.011570501 0.0048224875 0.005874855 0.0028853423 -0.005275771 0.007950236
-0.0035087492 -0.008454113 0.0047943797 -0.0017251198 -0.0015739418 -0.001766862 0.0026191836 0.008676947
0.008926166 0.0013661128 0.0029009199 -0.01007922 0.008493017 0.0055750716 -0.008616167 0.008297964
0.009747845 0.006518516 0.0047135167 0.0058559114 -0.0055512474 -0.005888154 -0.0003124599 -0.00551997
0.0036134378 -0.0010061268 -0.010948287 0.0036382074 -9.361939e-05 0.01061829 0.011361896 0.0060856133
0.006337081 -0.0015350768 -0.0030851774 0.00075480936 -0.004614532 -0.003003636 0.002266 0.0013209174
0.003316655 -0.010526935 -0.005491323 -0.002747518 0.011391871 0.006919875 0.009723486 -0.009853383
-0.0056231427 -0.009477947 0.0054742703 0.0030175122 -0.0012106809 -0.0041926447 -0.007938126 -0.011324988
-3.331287e-05 0.008204848 0.008983917 -0.005295732 -0.008844273 -0.0029928533 -0.004530871 -0.01051082
-0.009460856 -0.010107236 0.0035456978 -0.0102310665 -0.009270722 -0.0032911955 -0.0047324803 -0.0035914243
0.008067583 0.0031500822 0.008602686 0.007156996 -0.007755866 -0.0015566278 0.00028782646 0.0034703843
-0.0003582749 0.004097421 0.009861585 0.009541606 0.010946461 -0.010391635 -0.0036946055 0.004549612
-0.0009317727 -0.008976908 -0.008407007 0.0048952736 -0.008130508 -0.008468954 0.0046500326 0.006564344

bias f4 [30]
00000000: fd00 233c df33 b93b a300 c23a 88e8 203c
00000010: ebb0 b43b 50aa 303b eae3 aebb 7cac ab3b
00000020: 3234 cb3b db07 463b 0dec 893a 2e74 f1bb
00000030: 6b31 feba 8af2 05bc 0e5f 613a 996b ff3b
00000040: 85c8 993b 1c85 bdba 18fb c3bb b30b c53b
00000050: 1e2a bc3b bc0b 403c dc58 c0bb b480 793a
00000060: 0d54 133c f837 e73b a2c8 eabb 9534 3a3c
00000070: d800 ea3b 610c 2b3c
0.009948966 0.0056519355 0.0014801215 0.009821065 0.0055142543 0.0026956983 -0.005337228 0.0052390676
0.0062012905 0.0030217085 0.0010522619 -0.007368586 -0.001939339 -0.008175502 0.0008597233 0.007794809
0.0046930932 -0.0014459225 -0.0059808604 0.0060133575 0.0057423254 0.011721548 -0.005869968 0.00095177745
0.008992207 0.0070562325 -0.0071650306 0.011365076 0.007141214 0.010439963

weight f4 [4, 30]
00000000: 30ce 1cbe 9f90 59bd 9efa 373d 9092 72be
00000010: 2264 823e 352c 573e 4c6a cf3c 7424 e3bd
00000020: 7f60 183e d398 4e3e e985 aa3d aa40 253e
00000030: 991b 993d 1b4a e73c 58bf 293e 84f0 7ebe
00000040: 5ffd 1c3e f92e bbbd 0120 9cbd 57e5 a8bd
00000050: f2cd c9bd 38f2 2fbe 4599 71be 4eae 25be
00000060: 269f 113e 4270 3a3e 21a2 27be 89d8 eabd
00000070: 978f 6b3e 3483 44bd 6882 00bd d6f9 c73d
00000080: e883 85bd 5ff7 303e 2988 df3e 11e0 c43d
00000090: 24a1 76be 6fb9 1f3e c197 293d 13ab 94be
000000a0: 66d3 f2be 58f2 473e 4b3f a93c 980e fc3e
000000b0: e2ab 60bc 8e73 0f3f 7e9a 193e 00f5 3d3e
000000c0: 2231 583d e2cc e13e d9d7 323e 3769 e5be
000000d0: 3392 db3e 7109 da3e 926d 08bf d62a bc3e
000000e0: d5c7 24be b063 7cbd a134 9c3e 1a8e abbd
000000f0: 7751 aa3d 74d1 fcbd d657 14be 9b87 d7bd
00000100: d788 52be e842 28bc 8d29 763e 0fc0 88be
00000110: da9b 1dbe 73ec e43d 7260 2ebe db27 233d
00000120: 3622 36be 4e89 86bd 9096 80bd b0a9 a53c
00000130: 5cb9 2d3e 1df5 cf3c 598c fdbd cbb9 903d
00000140: 4b34 c53d 538c a7bd 722e a73c 0ae1 973e
00000150: 2cd3 813e c1a6 893e 771b de3d 5128 b83d
00000160: fc44 3a3d b782 ab3d 7aac b4bd 579d e0bd
00000170: f7b4 9bbc b9a3 edbe 81bf 953e da16 25bf
00000180: a635 9f3e e407 163f 4b55 59bc e5bc afbe
00000190: 1624 2fbe 94c0 da3d 144a 413d f8cf e9bd
000001a0: aa1c 1fbd c8a7 6e3e a3b0 a8bc 1286 a63d
000001b0: f508 393e 5c70 73be 4323 013e e7c9 05bf
000001c0: 53c2 b03e 108f 2abf d2ab cd3e eec0 c4bd
000001d0: 6fa1 003e 57e7 9c3d 0a7d d9bd 0fe6 86bd
-0.1531303 -0.053116437 0.04491674 -0.23688722 0.2546702 0.21012957 0.025319241 -0.11090937
0.1488056 0.20175485 0.083263226 0.16137949 0.07475967 0.028233578 0.16576898 -0.24896437
0.15331028 -0.09139819 -0.07623292 -0.08246868 -0.09853734 -0.17182243 -0.23593624 -0.16179773
0.14220867 0.18206885 -0.16370441 -0.11467082 0.23003994 -0.047976688 -0.031374365 0.09764449
-0.065193 0.17281865 0.4365857 0.0961305 -0.24084908 0.15598081 0.04140449 -0.2903677
-0.4742691 0.1952604 0.020660063 0.49229884 -0.013712855 0.560357 0.1500034 0.18550491
0.05278123 0.44101626 0.17465152 -0.44806835 0.4288498 0.42585328 -0.5329219 0.3675143
-0.16091855 -0.061618507 0.30508903 -0.08376713 0.083163194 -0.123446375 -0.14486632 -0.105239116
-0.20560013 -0.010269858 0.24039288 -0.2670903 -0.15391484 0.111779116 -0.17028978 0.03983293
-0.17786488 -0.065691575 -0.062787175 0.020222515 0.1696524 0.025385434 -0.12380285 0.07066687
0.09629115 -0.081810616 0.020407889 0.2966388 0.25356424 0.26885036 0.10845082 0.08992065
0.045475945 0.08374541 -0.0882196 -0.1096751 -0.01900719 -0.46413973 0.29247668 -0.64487994
0.31095618 0.5860579 -0.013264964 -0.34323803 -0.1710361 0.106812626 0.047189787 -0.1141662
-0.038845696 0.23306191 -0.02059204 0.08131041 0.18069823 -0.2377333 0.12611108 -0.52261204
0.34523258 -0.66624546 0.4017015 -0.09607111 0.12561582 0.07661312 -0.106195524 -0.06586849

bias f4 [4]
00000000: 1925 81bc 89d0 02be 7c26 b43d 95c4 2a3e
-0.01576476 -0.12774862 0.08796403 0.16676553
